…
snapshot: 10000
snapshot_prefix: "./models/solver"
solver_mode: GPU
device_id: 0
net: "train12.prototxt"
train_state {
  level: 0
  stage: ""
}
I0915 20:44:46.198669  3822 solver.cpp:102] Creating training net from net file: train12.prototxt
I0915 20:44:46.198951  3822 net.cpp:51] Initializing net from parameters: 
name: "face_12c"
state {
  phase: TRAIN
  level: 0
  stage: ""
}
layer {
  name: "PythonLayer"
  type: "Python"
  top: "data"
  top: "label"
  top: "roi"
  top: "pts"
  python_param {
    module: "pythonLayer"
    layer: "Data_Layer_train"
  }
}
layer {
  name: "conv1"
  type: "Convolution"
  bottom: "data"
  top: "conv1"
  param {
    lr_mult: 1
  }
  param {
    lr_mult: 2
  }
  convolution_param {
    num_output: 10
    kernel_size: 3
    weight_filler {
      type: "gaussian"
      std: 0.0001
    }
    bias_filler {
      type: "constant"
    }
  }
}
layer {
  name: "relu1"
  type: "PReLU"
  bottom: "conv1"
  top: "conv1"
}
layer {
  name: "pool1"
  type: "Pooling"
  bottom: "conv1"
  top: "pool1"
  pooling_param {
    pool: MAX
    kernel_size: 3
    stride: 2
  }
}
layer {
  name: "conv2"
  type: "Convolution"
  bottom: "pool1"
  top: "conv2"
  param {
    lr_mult: 1
  }
  param {
    lr_mult: 2
  }
  convolution_param {
    num_output: 16
    kernel_size: 3
    weight_filler {
      type: "gaussian"
      std: 0.0001
    }
    bias_filler {
      type: "constant"
    }
  }
}
layer {
  name: "relu2"
  type: "PReLU"
  bottom: "conv2"
  top: "conv2"
}
layer {
  name: "conv3"
  type: "Convolution"
  bottom: "conv2"
  top: "conv3"
  param {
    lr_mult: 1
    decay_mult: 1
  }
  param {
    lr_mult: 2
    decay_mult: 0
  }
  convolution_param {
    num_output: 32
    kernel_size: 3
    stride: 1
    weight_filler {
      type: "xavier"
    }
    bias_filler {
      type: "constant"
      value: 0
    }
  }
}
layer {
  name: "relu3"
  type: "PReLU"
  bottom: "conv3"
  top: "conv3"
}
layer {
  name: "conv4-1"
  type: "Convolution"
  bottom: "conv3"
  top: "conv4-1"
  param {
    lr_mult: 1
    decay_mult: 1
  }
  param {
    lr_mult: 2
    decay_mult: 0
  }
  convolution_param {
    num_output: 2
    kernel_size: 1
    stride: 1
    weight_filler {
      type: "xavier"
    }
    bias_filler {
      type: "constant"
      value: 0
    }
  }
}
layer {
  name: "cls_bridge"
  type: "Python"
  bottom: "conv4-1"
  bottom: "label"
  top: "conv4-1-valid"
  top: "label-valid"
  python_param {
    module: "pythonLayer"
    layer: "cls_Layer_fc"
  }
}
layer {
  name: "cls_loss"
  type: "SoftmaxWithLoss"
  bottom: "conv4-1-valid"
  bottom: "label-valid"
  top: "cls_loss"
  loss_weight: 1
  propagate_down: true
  propagate_down: false
}
layer {
  name: "cls_Acc"
  type: "Accuracy"
  bottom: "conv4-1-valid"
  bottom: "label-valid"
  top: "cls_Acc"
  include {
    phase: TRAIN
  }
}
layer {
  name: "conv4-2"
  type: "Convolution"
  bottom: "conv3"
  top: "conv4-2"
  param {
    lr_mult: 1
    decay_mult: 1
  }
  param {
    lr_mult: 2
    decay_mult: 0
  }
  convolution_param {
    num_output: 4
    kernel_size: 1
    stride: 1
    weight_filler {
      type: "xavier"
    }
    bias_filler {
      type: "constant"
      value: 0
    }
  }
}
layer {
  name: "reg_bridge"
  type: "Python"
  bottom: "conv4-2"
  bottom: "roi"
  top: "conv4-2-valid"
  top: "roi-valid"
  python_param {
    module: "pythonLayer"
    layer: "reg_Layer_fc"
  }
}
layer {
  name: "roi_loss"
  type: "EuclideanLoss"
  bottom: "conv4-2-valid"
  bottom: "roi-valid"
  top: "roi_loss"
  loss_weight: 0.5
  propagate_down: true
  propagate_down: false
}
layer {
  name: "conv4-3"
  type: "Convolution"
  bottom: "conv3"
  top: "conv4-3"
  param {
    lr_mult: 1
    decay_mult: 1
  }
  param {
    lr_mult: 2
    decay_mult: 0
  }
  convolution_param {
    num_output: 10
    kernel_size: 1
    stride: 1
    weight_filler {
      type: "xavier"
    }
    bias_filler {
      type: "constant"
      value: 0
    }
  }
}
layer {
  name: "pts_bridge"
  type: "Python"
  bottom: "conv4-3"
  bottom: "pts"
  top: "conv4-3-valid"
  top: "pts-valid"
  python_param {
    module: "pythonLayer"
    layer: "pts_Layer_fc"
  }
}
layer {
  name: "pts_loss"
  type: "EuclideanLoss"
  bottom: "conv4-3-valid"
  bottom: "pts-valid"
  top: "pts_loss"
  loss_weight: 0.5
  propagate_down: true
  propagate_down: false
}
I0915 20:44:46.199043  3822 layer_factory.hpp:77] Creating layer PythonLayer
I0915 20:44:46.820063  3822 net.cpp:84] Creating Layer PythonLayer
I0915 20:44:46.820082  3822 net.cpp:380] PythonLayer -> data
I0915 20:44:46.820094  3822 net.cpp:380] PythonLayer -> label
I0915 20:44:46.820102  3822 net.cpp:380] PythonLayer -> roi
I0915 20:44:46.820106  3822 net.cpp:380] PythonLayer -> pts
I0915 20:44:55.521781  3822 net.cpp:122] Setting up PythonLayer
I0915 20:44:55.521800  3822 net.cpp:129] Top shape: 384 3 12 12 (165888)
I0915 20:44:55.521803  3822 net.cpp:129] Top shape: 384 1 (384)
I0915 20:44:55.521806  3822 net.cpp:129] Top shape: 384 4 (1536)
I0915 20:44:55.521808  3822 net.cpp:129] Top shape: 384 10 (3840)
I0915 20:44:55.521826  3822 net.cpp:137] Memory required for data: 686592
I0915 20:44:55.521833  3822 layer_factory.hpp:77] Creating layer conv1
I0915 20:44:55.521847  3822 net.cpp:84] Creating Layer conv1
I0915 20:44:55.521852  3822 net.cpp:406] conv1 <- data
I0915 20:44:55.521864  3822 net.cpp:380] conv1 -> conv1
I0915 20:44:55.914403  3822 net.cpp:122] Setting up conv1
I0915 20:44:55.914422  3822 net.cpp:129] Top shape: 384 10 10 10 (384000)
I0915 20:44:55.914424  3822 net.cpp:137] Memory required for data: 2222592
I0915 20:44:55.914454  3822 layer_factory.hpp:77] Creating layer relu1
I0915 20:44:55.914461  3822 net.cpp:84] Creating Layer relu1
I0915 20:44:55.914465  3822 net.cpp:406] relu1 <- conv1
I0915 20:44:55.914469  3822 net.cpp:367] relu1 -> conv1 (in-place)
I0915 20:44:55.914599  3822 net.cpp:122] Setting up relu1
I0915 20:44:55.914620  3822 net.cpp:129] Top shape: 384 10 10 10 (384000)
I0915 20:44:55.914623  3822 net.cpp:137] Memory required for data: 3758592
I0915 20:44:55.914626  3822 layer_factory.hpp:77] Creating layer pool1
I0915 20:44:55.914631  3822 net.cpp:84] Creating Layer pool1
I0915 20:44:55.914633  3822 net.cpp:406] pool1 <- conv1
I0915 20:44:55.914638  3822 net.cpp:380] pool1 -> pool1
I0915 20:44:55.914669  3822 net.cpp:122] Setting up pool1
I0915 20:44:55.914672  3822 net.cpp:129] Top shape: 384 10 5 5 (96000)
I0915 20:44:55.914674  3822 net.cpp:137] Memory required for data: 4142592
I0915 20:44:55.914676  3822 layer_factory.hpp:77] Creating layer conv2
I0915 20:44:55.914682  3822 net.cpp:84] Creating Layer conv2
I0915 20:44:55.914685  3822 net.cpp:406] conv2 <- pool1
I0915 20:44:55.914690  3822 net.cpp:380] conv2 -> conv2
I0915 20:44:55.917263  3822 net.cpp:122] Setting up conv2
I0915 20:44:55.917271  3822 net.cpp:129] Top shape: 384 16 3 3 (55296)
I0915 20:44:55.917274  3822 net.cpp:137] Memory required for data: 4363776
I0915 20:44:55.917279  3822 layer_factory.hpp:77] Creating layer relu2
I0915 20:44:55.917284  3822 net.cpp:84] Creating Layer relu2
I0915 20:44:55.917287  3822 net.cpp:406] relu2 <- conv2
I0915 20:44:55.917305  3822 net.cpp:367] relu2 -> conv2 (in-place)
I0915 20:44:55.917364  3822 net.cpp:122] Setting up relu2
I0915 20:44:55.917371  3822 net.cpp:129] Top shape: 384 16 3 3 (55296)
I0915 20:44:55.917372  3822 net.cpp:137] Memory required for data: 4584960
I0915 20:44:55.917374  3822 layer_factory.hpp:77] Creating layer conv3
I0915 20:44:55.917381  3822 net.cpp:84] Creating Layer conv3
I0915 20:44:55.917382  3822 net.cpp:406] conv3 <- conv2
I0915 20:44:55.917387  3822 net.cpp:380] conv3 -> conv3
I0915 20:44:55.920076  3822 net.cpp:122] Setting up conv3
I0915 20:44:55.920086  3822 net.cpp:129] Top shape: 384 32 1 1 (12288)
I0915 20:44:55.920089  3822 net.cpp:137] Memory required for data: 4634112
I0915 20:44:55.920094  3822 layer_factory.hpp:77] Creating layer relu3
I0915 20:44:55.920125  3822 net.cpp:84] Creating Layer relu3
I0915 20:44:55.920127  3822 net.cpp:406] relu3 <- conv3
I0915 20:44:55.920131  3822 net.cpp:367] relu3 -> conv3 (in-place)
I0915 20:44:55.920192  3822 net.cpp:122] Setting up relu3
I0915 20:44:55.920197  3822 net.cpp:129] Top shape: 384 32 1 1 (12288)
I0915 20:44:55.920198  3822 net.cpp:137] Memory required for data: 4683264
I0915 20:44:55.920203  3822 layer_factory.hpp:77] Creating layer conv3_relu3_0_split
I0915 20:44:55.920209  3822 net.cpp:84] Creating Layer conv3_relu3_0_split
I0915 20:44:55.920212  3822 net.cpp:406] conv3_relu3_0_split <- conv3
I0915 20:44:55.920215  3822 net.cpp:380] conv3_relu3_0_split -> conv3_relu3_0_split_0
I0915 20:44:55.920220  3822 net.cpp:380] conv3_relu3_0_split -> conv3_relu3_0_split_1
I0915 20:44:55.920224  3822 net.cpp:380] conv3_relu3_0_split -> conv3_relu3_0_split_2
I0915 20:44:55.920255  3822 net.cpp:122] Setting up conv3_relu3_0_split
I0915 20:44:55.920259  3822 net.cpp:129] Top shape: 384 32 1 1 (12288)
I0915 20:44:55.920262  3822 net.cpp:129] Top shape: 384 32 1 1 (12288)
I0915 20:44:55.920264  3822 net.cpp:129] Top shape: 384 32 1 1 (12288)
I0915 20:44:55.920266  3822 net.cpp:137] Memory required for data: 4830720
I0915 20:44:55.920269  3822 layer_factory.hpp:77] Creating layer conv4-1
I0915 20:44:55.920274  3822 net.cpp:84] Creating Layer conv4-1
I0915 20:44:55.920276  3822 net.cpp:406] conv4-1 <- conv3_relu3_0_split_0
I0915 20:44:55.920281  3822 net.cpp:380] conv4-1 -> conv4-1
I0915 20:44:55.922370  3822 net.cpp:122] Setting up conv4-1
I0915 20:44:55.922379  3822 net.cpp:129] Top shape: 384 2 1 1 (768)
I0915 20:44:55.922380  3822 net.cpp:137] Memory required for data: 4833792
I0915 20:44:55.922385  3822 layer_factory.hpp:77] Creating layer cls_bridge
I0915 20:44:55.922426  3822 net.cpp:84] Creating Layer cls_bridge
I0915 20:44:55.922430  3822 net.cpp:406] cls_bridge <- conv4-1
I0915 20:44:55.922435  3822 net.cpp:406] cls_bridge <- label
I0915 20:44:55.922438  3822 net.cpp:380] cls_bridge -> conv4-1-valid
I0915 20:44:55.922442  3822 net.cpp:380] cls_bridge -> label-valid
I0915 20:44:55.922546  3822 net.cpp:122] Setting up cls_bridge
I0915 20:44:55.922552  3822 net.cpp:129] Top shape: 384 2 1 1 (768)
I0915 20:44:55.922555  3822 net.cpp:129] Top shape: 384 1 (384)
I0915 20:44:55.922557  3822 net.cpp:137] Memory required for data: 4838400
I0915 20:44:55.922559  3822 layer_factory.hpp:77] Creating layer conv4-1-valid_cls_bridge_0_split
I0915 20:44:55.922562  3822 net.cpp:84] Creating Layer conv4-1-valid_cls_bridge_0_split
I0915 20:44:55.922565  3822 net.cpp:406] conv4-1-valid_cls_bridge_0_split <- conv4-1-valid
I0915 20:44:55.922569  3822 net.cpp:380] conv4-1-valid_cls_bridge_0_split -> conv4-1-valid_cls_bridge_0_split_0
I0915 20:44:55.922575  3822 net.cpp:380] conv4-1-valid_cls_bridge_0_split -> conv4-1-valid_cls_bridge_0_split_1
I0915 20:44:55.922600  3822 net.cpp:122] Setting up conv4-1-valid_cls_bridge_0_split
I0915 20:44:55.922605  3822 net.cpp:129] Top shape: 384 2 1 1 (768)
I0915 20:44:55.922606  3822 net.cpp:129] Top shape: 384 2 1 1 (768)
I0915 20:44:55.922608  3822 net.cpp:137] Memory required for data: 4844544
I0915 20:44:55.922610  3822 layer_factory.hpp:77] Creating layer label-valid_cls_bridge_1_split
I0915 20:44:55.922613  3822 net.cpp:84] Creating Layer label-valid_cls_bridge_1_split
I0915 20:44:55.922616  3822 net.cpp:406] label-valid_cls_bridge_1_split <- label-valid
I0915 20:44:55.922619  3822 net.cpp:380] label-valid_cls_bridge_1_split -> label-valid_cls_bridge_1_split_0
I0915 20:44:55.922624  3822 net.cpp:380] label-valid_cls_bridge_1_split -> label-valid_cls_bridge_1_split_1
I0915 20:44:55.922648  3822 net.cpp:122] Setting up label-valid_cls_bridge_1_split
I0915 20:44:55.922652  3822 net.cpp:129] Top shape: 384 1 (384)
I0915 20:44:55.922654  3822 net.cpp:129] Top shape: 384 1 (384)
I0915 20:44:55.922657  3822 net.cpp:137] Memory required for data: 4847616
I0915 20:44:55.922657  3822 layer_factory.hpp:77] Creating layer cls_loss
I0915 20:44:55.922662  3822 net.cpp:84] Creating Layer cls_loss
I0915 20:44:55.922672  3822 net.cpp:406] cls_loss <- conv4-1-valid_cls_bridge_0_split_0
I0915 20:44:55.922675  3822 net.cpp:406] cls_loss <- label-valid_cls_bridge_1_split_0
I0915 20:44:55.922680  3822 net.cpp:380] cls_loss -> cls_loss
…
I0915 20:44:55.923341  3822 net.cpp:380] cls_Acc -> cls_Acc
I0915 20:44:55.923363  3822 net.cpp:122] Setting up cls_Acc
I0915 20:44:55.923367  3822 net.cpp:129] Top shape: (1)
I0915 20:44:55.923368  3822 net.cpp:137] Memory required for data: 4847624
I0915 20:44:55.923385  3822 layer_factory.hpp:77] Creating layer conv4-2
I0915 20:44:55.923393  3822 net.cpp:84] Creating Layer conv4-2
I0915 20:44:55.923408  3822 net.cpp:406] conv4-2 <- conv3_relu3_0_split_1
I0915 20:44:55.923413  3822 net.cpp:380] conv4-2 -> conv4-2
I0915 20:44:55.925827  3822 net.cpp:122] Setting up conv4-2
I0915 20:44:55.925835  3822 net.cpp:129] Top shape: 384 4 1 1 (1536)
I0915 20:44:55.925837  3822 net.cpp:137] Memory required for data: 4853768
I0915 20:44:55.925843  3822 layer_factory.hpp:77] Creating layer reg_bridge
I0915 20:44:55.925884  3822 net.cpp:84] Creating Layer reg_bridge
I0915 20:44:55.925901  3822 net.cpp:406] reg_bridge <- conv4-2
I0915 20:44:55.925904  3822 net.cpp:406] reg_bridge <- roi
I0915 20:44:55.925909  3822 net.cpp:380] reg_bridge -> conv4-2-valid
I0915 20:44:55.925915  3822 net.cpp:380] reg_bridge -> roi-valid
I0915 20:44:55.926019  3822 net.cpp:122] Setting up reg_bridge
I0915 20:44:55.926026  3822 net.cpp:129] Top shape: 384 4 1 1 (1536)
I0915 20:44:55.926029  3822 net.cpp:129] Top shape: 384 4 (1536)
I0915 20:44:55.926031  3822 net.cpp:137] Memory required for data: 4866056
I0915 20:44:55.926033  3822 layer_factory.hpp:77] Creating layer roi_loss
I0915 20:44:55.926038  3822 net.cpp:84] Creating Layer roi_loss
I0915 20:44:55.926041  3822 net.cpp:406] roi_loss <- conv4-2-valid
I0915 20:44:55.926059  3822 net.cpp:406] roi_loss <- roi-valid
I0915 20:44:55.926064  3822 net.cpp:380] roi_loss -> roi_loss
I0915 20:44:55.926103  3822 net.cpp:122] Setting up roi_loss
I0915 20:44:55.926107  3822 net.cpp:129] Top shape: (1)
I0915 20:44:55.926110  3822 net.cpp:132]     with loss weight 0.5
I0915 20:44:55.926113  3822 net.cpp:137] Memory required for data: 4866060
I0915 20:44:55.926115  3822 layer_factory.hpp:77] Creating layer conv4-3
I0915 20:44:55.926122  3822 net.cpp:84] Creating Layer conv4-3
I0915 20:44:55.926125  3822 net.cpp:406] conv4-3 <- conv3_relu3_0_split_2
I0915 20:44:55.926129  3822 net.cpp:380] conv4-3 -> conv4-3
I0915 20:44:55.928455  3822 net.cpp:122] Setting up conv4-3
I0915 20:44:55.928468  3822 net.cpp:129] Top shape: 384 10 1 1 (3840)
I0915 20:44:55.928470  3822 net.cpp:137] Memory required for data: 4881420
I0915 20:44:55.928475  3822 layer_factory.hpp:77] Creating layer pts_bridge
I0915 20:44:55.928505  3822 net.cpp:84] Creating Layer pts_bridge
I0915 20:44:55.928526  3822 net.cpp:406] pts_bridge <- conv4-3
I0915 20:44:55.928530  3822 net.cpp:406] pts_bridge <- pts
I0915 20:44:55.928547  3822 net.cpp:380] pts_bridge -> conv4-3-valid
I0915 20:44:55.928552  3822 net.cpp:380] pts_bridge -> pts-valid
I0915 20:44:55.928665  3822 net.cpp:122] Setting up pts_bridge
I0915 20:44:55.928671  3822 net.cpp:129] Top shape: 384 10 1 1 (3840)
I0915 20:44:55.928674  3822 net.cpp:129] Top shape: 384 10 (3840)
I0915 20:44:55.928675  3822 net.cpp:137] Memory required for data: 4912140
I0915 20:44:55.928678  3822 layer_factory.hpp:77] Creating layer pts_loss
I0915 20:44:55.928692  3822 net.cpp:84] Creating Layer pts_loss
I0915 20:44:55.928694  3822 net.cpp:406] pts_loss <- conv4-3-valid
I0915 20:44:55.928697  3822 net.cpp:406] pts_loss <- pts-valid
I0915 20:44:55.928701  3822 net.cpp:380] pts_loss -> pts_loss
…
